QAOA_model_2022-10-13-10_01_36/model.ckpt (torch, 2895 bytes, 6 tensors)

beta f4 [4]
00000000: 8d81 a43e a356 063f 5ea2 643e a510 a43e
0.3213009 0.5247595 0.22327563 0.3204395

gamma f4 [4]
00000000: f186 c13f 5545 c33e 3962 b83e 1739 983e
1.5119306 0.38138834 0.36012438 0.29731056

exp_avg f4 [4]
00000000: b176 e2b3 8704 bfb4 b9eb c030 5e1b 0534
-1.0545535e-07 -3.5579816e-07 1.4036835e-09 1.2396546e-07

exp_avg_sq f4 [4]
00000000: 525d 9b3d 227f 203d 8fb4 453d e362 8b3d
0.07586159 0.039183743 0.048267897 0.068059705

exp_avg f4 [4]
00000000: 9dfb 3db3 3c72 3e34 8f79 3d33 e65d 6133
-4.4233833e-08 1.7736687e-07 4.411555e-08 5.2472295e-08

exp_avg_sq f4 [4]
00000000: ebcc 813d e966 343d 6b95 3c3e e3e3 3e3e
0.06337913 0.044043455 0.18416373 0.1864162
